Train/TrainData.pth (torch, 6172 bytes, 6 tensors)

l1.weight f4 [8, 64]
000000 d6 61 8a 3e ce 3a b9 3e 1f 28 c6 be 6d a3 b7 be
       0.27027768 0.36177677 -0.38702485 -0.3586687
000010 98 63 ba 3e 12 22 47 3f 9c 70 6d be f4 66 e2 bd
       0.3640411 0.7778636 -0.23187488 -0.11054793
000020 04 71 68 3e 9c 83 f5 be 08 1c 02 bf 0f b8 60 3e
       0.22699362 -0.47951972 -0.5082402 0.21945213
000030 70 a0 b4 bd 58 5c 63 bd c2 fe ef 3e de 4f 09 be
       -0.088196635 -0.055507988 0.46874052 -0.13409373
000040 f7 07 92 3e 87 12 a4 be e0 e9 35 3f cf 94 f2 bd
       0.28521702 -0.32045385 0.7105999 -0.11844789
000050 16 7a ad 3e 9a 70 6b 3e 11 48 f5 be 8c d4 cc be
       0.33882207 0.22992173 -0.47906545 -0.4000591
000060 ef 2a f2 be 05 4d fa be 32 e8 2f 3f 04 d5 ab be
       -0.4729838 -0.48886886 0.68713677 -0.33560956
000070 b3 6f 13 3f ee b2 24 3f 58 81 11 be 18 ad 97 bd
       0.57592314 0.64335525 -0.14209497 -0.07406062
000080 ea 47 b1 be 68 82 a3 bd 71 84 a2 3e 9e 7f ef bd
       -0.3462518 -0.079838574 0.3174167 -0.11694263
000090 4f 65 b8 3d 0c 24 5e bd 67 f5 cf be 0a 2d ea 3e
       0.09003698 -0.054233596 -0.40616915 0.45737487
0000a0 3b a6 01 bf 6e 54 10 be 9b 39 cb 3e 0b b3 fb bd
       -0.5064427 -0.14094707 0.39692387 -0.12290009
0000b0 0e 9f 7a be ea b4 d5 be d8 71 5e be 91 10 d8 be
       -0.24474737 -0.4173959 -0.21723115 -0.4220014
0000c0 ac df ba bd 6c e8 fd be b9 1f 99 be 05 af 5b 3e
       -0.09124693 -0.49591386 -0.29907015 0.21453483
0000d0 43 73 e8 3d e5 c5 21 3f e6 82 84 be b5 c1 13 bc
       0.113501094 0.6319259 -0.25881118 -0.009018351
0000e0 47 31 fc be 56 1b 2f bd f7 f4 02 3f 98 b6 77 3d
       -0.49256346 -0.04275068 0.51155037 0.06047687
0000f0 05 fb 92 bf d3 48 ec 3e fa f4 c7 be fd 40 23 3f
       -1.1482855 0.4614931 -0.3905409 0.6377104
000100 29 15 d5 3e e6 50 9c 3e b0 0d f9 3e 43 f9 57 3d
       0.41617706 0.3053047 0.48643255 0.05272795
000110 ec 8f 00 3f fc 2e c6 3e f4 fe a8 3e e0 0d a6 3e
       0.5021961 0.3870772 0.33007014 0.3243246
000120 e2 f5 14 bf 37 35 bf 3e e5 6d d0 bd 61 61 9b be
       -0.5818769 0.37345287 -0.10177211 -0.30347732
000130 8e c8 2c bf ac 38 f6 be fe 88 0a 3f 0d 02 16 bf
       -0.6749352 -0.48090112 0.54115283 -0.5859688
000140 d8 b8 73 be eb 29 47 3d b0 83 2a bf a2 87 a5 be
       -0.23800981 0.04862396 -0.6660719 -0.32330042
000150 b8 7c 0d bf 24 c8 14 bf 4f c7 7c be 1e 1a ed 3e
       -0.5526843 -0.5811789 -0.24685405 0.46308988
000160 94 c9 7a be 97 6c 85 be 70 7d f4 be 0f ff 23 3f
       -0.24490958 -0.2605941 -0.4775195 0.64061064
000170 4b 4d 33 3f 07 dc 1b 3f 1f 12 d0 bd a5 7e c9 3e
       0.70039815 0.6088261 -0.10159706 0.39354435
000180 8b d4 8c 3e c2 a3 b2 be 4e 79 99 3e 07 d6 1c bf
       0.27505907 -0.34890562 0.2997536 -0.6126408
000190 0e 9f a9 3e 49 c2 55 3e b1 e0 0a 3f 32 8e 6c 3e
       0.33129162 0.20874895 0.542491 0.23101118
0001a0 0c c8 aa 3d 4b 7d b7 be 7f 18 e4 3e cf 4b 5a 3f
       0.08338937 -0.35837778 0.4454994 0.85271925
0001b0 99 de 79 3e 89 dc 18 3f ee 18 13 bf 4f 14 de bd
       0.2440132 0.5971151 -0.57459915 -0.10843717
0001c0 5e 59 f0 be 6f 09 20 3f 28 31 eb 3e be 89 8e be
       -0.46943182 0.62514395 0.4593594 -0.27839464
0001d0 68 93 f8 3e 57 45 54 3f c1 60 03 bf ac 8b 24 3e
       0.48549962 0.82918304 -0.5131951 0.16068906
0001e0 70 21 01 bd cb 45 fc 3d 3c f9 1f 3f 10 75 88 3e
       -0.03152603 0.123179995 0.62489676 0.26651812
0001f0 2e 07 e5 bc 32 18 72 3e 1d 15 0a 3e 50 3d 1e 3f
       -0.027957525 0.23642042 0.13484617 0.61812305
000200 7c b2 d3 bb c8 fc bc be 85 84 e6 3d 7b e3 fb 3e
       -0.006460486 -0.36911607 0.11255745 0.4919699
000210 e3 d4 a0 be d9 df 97 ba cd 44 e0 bc a7 18 ff be
       -0.3141242 -0.0011587098 -0.027376557 -0.49823496
000220 07 c5 16 3f b8 1e cf 3e e4 85 70 bc f3 bd a2 3e
       0.5889439 0.40453124 -0.0146803595 0.31785545
000230 2b ab 89 3f 16 c2 49 3f 55 f1 b4 be 01 7d 27 3f
       1.0755361 0.78811777 -0.35340372 0.65425116
000240 55 61 57 3f 8c db e9 3e 62 ee 20 3f 3c 21 ff 3e
       0.8413289 0.45675313 0.62863743 0.49830043
000250 cc b5 5b 3f d4 8d 26 3f 08 c7 d4 3e a8 e2 47 bf
       0.85824275 0.6506016 0.415581 -0.78080225
000260 ae d5 d5 3e fc 3a c4 3e a5 b9 46 3f 72 32 cb 3e
       0.41764587 0.38326252 0.7762702 0.39686924
000270 a9 23 2a bf 22 04 40 bf 45 f0 15 3f 03 30 c1 3e
       -0.66460663 -0.75006306 0.5856975 0.37731943
000280 48 6d 18 3d a1 f1 95 3e c2 01 03 be 24 21 68 3f
       0.037213594 0.2928591 -0.1279364 0.9067557
000290 ff 67 a5 3e a0 0c 39 3e da 56 5c be c7 b0 1a be
       0.32305905 0.18071222 -0.21517506 -0.15106498
0002a0 94 54 90 3e d1 28 2b 3f cb 87 a0 be d4 e9 d4 3d
       0.28189528 0.66859156 -0.31353602 0.10396162
0002b0 56 b3 90 be dc 08 d8 3e 3d 6d 47 3f 6a fe 0f 3f
       -0.28261822 0.4219426 0.7790106 0.5624758
0002c0 cb f1 8c 3e bd 2e 1b 3e 94 48 47 bf 5f 5e 0f 3f
       0.27528223 0.15154548 -0.7784512 0.56003374
0002d0 8b 0b 92 3e 3b 92 2c bf cc c4 fd 3e 1e a2 c9 3e
       0.28524432 -0.6741063 0.49564207 0.39381498
0002e0 9c 4f 2e 3f c9 30 03 3f a6 81 26 3d 6d 12 03 3f
       0.68090224 0.51246315 0.040650986 0.5119999
0002f0 59 c5 88 3f 60 1a b5 3e f8 0a 71 3f 6d 76 cb be
       1.0685226 0.35371685 0.9415736 -0.3973879
000300 70 53 59 3c a0 6f a5 3b 94 db bb 3e a4 df f0 bc
       0.013264522 0.005048707 0.36690962 -0.029403515
000310 b0 f3 15 be 23 da f2 3e 7d b0 eb 3e 5c ca 4a be
       -0.1464374 0.4743205 0.46033087 -0.19803756
000320 8f cf ed be 99 95 e7 3e 92 c5 de 3d 82 25 45 be
       -0.46447417 0.4523132 0.10877527 -0.1925259
000330 9c 8f ac bc a7 07 ae be 62 39 89 3e 8c c3 08 3f
       -0.021064572 -0.33990213 0.26801592 0.5342338
000340 e2 28 c8 3e e8 16 b2 bd a6 ba ca be 02 4f fd 3e
       0.3909369 -0.08695775 -0.39595526 0.4947434
000350 45 b9 06 bf cb d3 ed be 19 ad dd be b5 3f b0 be
       -0.5262645 -0.46450648 -0.43296126 -0.34423605
000360 3f cb ed be cc c8 ed be e6 34 57 be 2c 9c 07 3f
       -0.46444127 -0.46442258 -0.21016273 0.52972674
000370 d2 c9 a6 3e 47 f8 da 3e a1 be e2 3e c7 14 29 3e
       0.32575852 0.42767546 0.44286063 0.16511832
000380 1f 5b d8 3e 95 e8 c8 be e0 52 bb bb fb 85 bb 3d
       0.4225702 -0.39239946 -0.0057166666 0.09156414
000390 54 2a a4 3e f3 15 7a 3e 06 a1 c7 3e 50 2f 25 3e
       0.32063544 0.24422435 0.3899004 0.1613133
0003a0 93 8e 61 bd 42 bd 04 3f f0 d2 a2 be 43 9f 13 3f
       -0.05506761 0.51851285 -0.31801558 0.5766489
0003b0 a9 61 03 bc bb 41 93 3e d6 d4 1b 3f a6 30 d9 be
       -0.008018889 0.28761086 0.60871637 -0.42419928
0003c0 69 27 da be 86 63 e4 3e 37 9a 9c be 7e 40 8b be
       -0.42608193 0.4460718 -0.30586407 -0.2719764
0003d0 81 9e b9 3e 84 fe 4a bf d8 84 f5 3e b2 85 55 bd
       0.3625374 -0.7929461 0.47952914 -0.052129455
0003e0 7e 67 e8 be 0b 3d 2f 3f 9a 72 02 3f 2b 69 01 3f
       -0.45391458 0.6845252 0.5095612 0.505511
0003f0 0e 21 2d 3f 98 40 b5 3e 80 2d 35 3f bd 75 61 3e
       0.6762856 0.35400844 0.7077255 0.2201757

l1.bias f4 [8]
000000 7c 46 00 3f f9 f4 14 3f e5 e2 47 3f 40 c8 ed 3e
       0.5010755 0.581863 0.7808059 0.4644184
000010 ac 75 8a 3f 58 48 24 3f 42 e9 36 3f 34 b9 44 3f
       1.0817161 0.6417289 0.71449673 0.768451

l2.weight f4 [8, 8]
000000 0a 6b c8 3e 40 3e 75 bf 31 ae c8 3f 4d 3c 4b bf
       0.39144164 -0.9579811 1.5678159 -0.79388887
000010 c1 0b c3 3f 6b 6e 1d bf 5f f7 c4 3e 44 ea 82 3f
       1.5237962 -0.6149661 0.3846998 1.0227742
000020 5d 69 ef 3e 55 98 c2 3f d1 58 2a bf c2 2b 22 be
       0.46760073 1.5202738 -0.66541773 -0.15837005
000030 34 cc b2 3f 8a 70 66 3f 25 d8 b9 bf 43 cc a1 3f
       1.3968568 0.9001547 -1.4519087 1.2640461
000040 8c ed ea 3f 8b 50 21 3f 1e 04 09 bf 51 a5 b6 bd
       1.8353744 0.63013524 -0.5352191 -0.0891825
000050 41 a4 ef bc b8 86 5b 3f 0a 8f d5 3f 7f 41 a0 be
       -0.029253127 0.8575244 1.6684277 -0.3129997
000060 f2 99 02 3f 45 98 c5 3f e5 6f b3 bf 10 15 c3 3e
       0.5101615 1.5437094 -1.4018523 0.38102007
000070 fe 6b 84 3e ab 59 82 3e e9 a4 92 3f 35 e9 5f 3f
       0.25863642 0.25459036 1.1456577 0.8746522
000080 75 4d 26 3f 73 e3 20 3f b0 48 6c 3f 8c 96 a8 3f
       0.6496194 0.6284706 0.9229841 1.3170943
000090 3f ab 76 be ab 02 c6 3f 63 56 53 bf f8 27 38 be
       -0.24088763 1.5469564 -0.8255369 -0.17983997
0000a0 a3 00 cf be ac d9 35 3f ea 7a bf 3e 89 9a 47 be
       -0.40430173 0.71035266 0.37398463 -0.19492544
0000b0 6b 7f 09 3f 75 7a c3 3e c7 c0 c3 bf 1e 08 a7 be
       0.5371005 0.38179365 -1.5293206 -0.3262338
0000c0 84 e9 38 bf 86 1a 86 3f 90 9f ce 3e cf fd 4d 3f
       -0.72231317 1.0476844 0.40356112 0.80465406
0000d0 c9 5a 95 3e 4b 9b 5e 3f 8e 8a 6b be 62 68 a3 bf
       0.29170826 0.8695571 -0.23002073 -1.276623
0000e0 2b aa 1c bf 26 19 35 be 59 7f dc 3f fa 03 9c 3f
       -0.61197156 -0.17685375 1.7226363 1.2188714
0000f0 2b 15 05 bf a6 f4 06 3f bd e4 e4 3f d5 eb 82 3f
       -0.51985425 0.52717054 1.7882305 1.022822

l2.bias f4 [8]
000000 01 f8 4d 3f d4 03 e9 3e 8c 22 45 3e f9 58 01 3f
       0.8045655 0.45510733 0.1925146 0.50526386
000010 05 20 40 be d2 3e fc bd 9b e9 fb 3e 87 d7 45 3f
       -0.18762214 -0.123166695 0.49201664 0.77281994

l3.weight f4 [9, 8]
000000 3d 7b 96 bf f1 89 de bf c7 12 fd be 58 85 42 bf
       -1.1756359 -1.7385846 -0.49428388 -0.75984716
000010 b1 f5 2c 3f 56 43 f5 bf c8 01 25 3f 8e e7 ea 3e
       0.67562395 -1.9161174 0.6445584 0.45879787
000020 42 82 71 3e 9e 79 af bf 9c 2c ff bf b3 30 45 bf
       0.23584846 -1.370899 -1.9935489 -0.77027434
000030 8f 52 14 3e 8a ff 1c c0 6e 61 aa bd a0 ea 24 3f
       0.14484619 -2.4530969 -0.083193645 0.6442051
000040 72 3d 25 3f 45 41 55 bf da 33 fc 3d f5 b8 4f be
       0.64546883 -0.8330272 0.123145774 -0.202854
000050 3a 24 ca bf a5 4c 0f c0 a5 b5 a3 bf 2c 14 c4 3e
       -1.5792305 -2.239053 -1.2789809 0.3829664
000060 01 de 5f 3f d6 2e 29 3e 52 20 d4 bf 56 54 63 bf
       0.87448126 0.16521773 -1.6572363 -0.8880056
000070 39 53 45 bf 2e c2 f5 3f db 5b 03 3f 47 f1 d1 be
       -0.7708011 1.9199884 0.51312035 -0.41004393
000080 3f 27 87 bd d1 a2 61 3d b6 df 07 3f da 89 71 be
       -0.065992825 0.055086914 0.5307573 -0.23587742
000090 a5 4d 96 3e c2 98 14 c0 0f 10 a0 bf c2 da ba be
       0.29356113 -2.3218236 -1.2504901 -0.36495024
0000a0 46 f5 9a 3c 54 1c 5c 3f 9f 64 39 bf 0e f3 52 3f
       0.018915784 0.85980725 -0.7241916 0.8240212
0000b0 6f 51 c4 bf 08 39 a8 bf 57 21 bf bf e7 8a 95 be
       -1.5337352 -1.3142405 -1.493205 -0.29207537
0000c0 98 2e ee bf 2e d7 7c be 08 77 64 3f 6e ae 14 3f
       -1.8607969 -0.2469146 0.8924413 0.5807866
0000d0 87 de 91 bd 03 4d fc bf 2c 06 b6 3e c3 2f 85 be
       -0.07122522 -1.9711002 0.35551584 -0.26013002
0000e0 f0 a7 9e bf 4d 95 13 3d 69 82 39 bf 22 83 e1 3d
       -1.2395 0.036031056 -0.72464615 0.1101134
0000f0 d1 62 91 3e 05 0e 4b 3f 47 04 01 3f 1d 5f 54 3e
       0.28395703 0.7931827 0.5039715 0.20739408
000100 37 60 31 bf 43 6f 2d 3f 06 b6 c9 3e a2 c8 a2 3d
       -0.6928744 0.67747897 0.39396685 0.07948424
000110 d0 1d d0 bd fa 57 83 3f 49 62 07 3e 7a 95 cf bf
       -0.10161936 1.0261223 0.13221087 -1.6217492

l3.bias f4 [9]
000000 20 37 2b be 94 dd 14 be 57 d9 cc 3e 35 09 ce 3e
       -0.16720247 -0.1453765 0.40009567 0.402414
000010 95 a9 d8 bd 3a 5f 4e be 31 fb fc 39 ec 29 9b be
       -0.1057922 -0.20153514 0.00048252338 -0.3030542
000020 3d b4 68 bc
       -0.014203128
